//
// SPDX-FileCopyrightText: Copyright 2023-2025 Arm Limited and/or its affiliates <open-source-office@arm.com>
// SPDX-License-Identifier: Apache-2.0 WITH LLVM-exception
//

module attributes {tf_saved_model.semantics, tfl.description = "MLIR Converted.", tfl.schema_version = 3 : i32} {
  func.func @main(%arg0: tensor<1x16x16x16xi8> {tf_saved_model.index_path = ["input_3"]}) -> (tensor<1x8x8x16xi8> {tf_saved_model.index_path = ["conv2d"]}) attributes {tf.entry_function = {inputs = "serving_default_input_3:0", outputs = "StatefulPartitionedCall:0"}, tf_saved_model.exported_names = ["serving_default"]} {
    %0 = "tosa.const"() {values = dense<0> : tensor<16xi32>} : () -> tensor<16xi32>
    %1 = "tosa.const"() {values = dense<"…"> : tensor<16x2x2x16xi8>} : () -> tensor<16x2x2x16xi8>
    %2 = "tosa.const"() {values = dense<[1931928506, 1951328493, 1755276611, 1934572170, 1932872072, 1944302913, 1932623941, 1949223780, 1952764318, 1948369062, 1947668025, 1899102491, 1913241564, 1948406415, 1912688338, 1935896203]> : tensor<16xi32>} : () -> tensor<16xi32>
    %3 = "tosa.const"() {values = dense<42> : tensor<16xi8>} : () -> tensor<16xi8>
    %4 = "tosa.const"() {values = dense<-128> : tensor<1xi8>} : () -> tensor<1xi8>
    %5 = "tosa.const"() {values = dense<0> : tensor<1xi8>} : () -> tensor<1xi8>
    %6 = tosa.conv2d %arg0, %1, %0, %4, %5 {dilation = array<i64: 1, 1>, pad = array<i64: 0, 0, 0, 0>, stride = array<i64: 2, 2>, acc_type = i32} : (tensor<1x16x16x16xi8>, tensor<16x2x2x16xi8>, tensor<16xi32>, tensor<1xi8>, tensor<1xi8>) -> tensor<1x8x8x16xi32>
    %7 = "tosa.const"() {values = dense<0> : tensor<1xi32>} : () -> tensor<1xi32>
    %8 = "tosa.const"() {values = dense<0> : tensor<1xi8>} : () -> tensor<1xi8>
    %9 = tosa.rescale %6, %2, %3, %7, %8 {rounding_mode = DOUBLE_ROUND, per_channel = true, scale32 = true,  input_unsigned = false, output_unsigned = false} : (tensor<1x8x8x16xi32>, tensor<16xi32>, tensor<16xi8>, tensor<1xi32>, tensor<1xi8>) -> tensor<1x8x8x16xi8>
    return %9 : tensor<1x8x8x16xi8>
  }
}
